…
Colocations handled automatically by placer.
WARNING:tensorflow:From /Users/gollum/anaconda3/envs/eeml/lib/python2.7/site-packages/keras/backend/tensorflow_backend.py:3445: calling dropout (from tensorflow.python.ops.nn_ops) with keep_prob is deprecated and will be removed in a future version.
Instructions for updating:
Please use `rate` instead of `keep_prob`. Rate should be set to `rate = 1 - keep_prob`.
_________________________________________________________________
Layer (type)                 Output Shape              Param #
=================================================================
data (InputLayer)            (None, 2708)              0
_________________________________________________________________
drop0 (Dropout)              (None, 2708)              0
_________________________________________________________________
encoded1 (Dense)             (None, 256)               693504
_________________________________________________________________
encoded2 (Dense)             (None, 128)               32896
_________________________________________________________________
drop2 (Dropout)              (None, 128)               0
_________________________________________________________________
decoded2 (DenseTied)         (None, 256)               256
_________________________________________________________________
decoded1 (DenseTied)         (None, 2708)              2708
=================================================================
Total params: 729,364
Trainable params: 729,364
Non-trainable params: 0
_________________________________________________________________
None

Fitting autoencoder model...


Epoch 1/50
2019-03-18 18:55:02.873925: I tensorflow/core/platform/cpu_feature_guard.cc:141] Your CPU supports instructions that this TensorFlow binary was not compiled to use: AVX2 FMA
…
