
Loading dataset arxiv-grqc...


Compiling autoencoder model...

_________________________________________________________________
Layer (type)                 Output Shape              Param #   
=================================================================
data (InputLayer)            (None, 5242)              0         
_________________________________________________________________
drop0 (Dropout)              (None, 5242)              0         
_________________________________________________________________
encoded1 (Dense)             (None, 256)               1342208   
_________________________________________________________________
encoded2 (Dense)             (None, 128)               32896     
_________________________________________________________________
drop2 (Dropout)              (None, 128)               0         
_________________________________________________________________
decoded2 (DenseTied)         (None, 256)               256       
_________________________________________________________________
decoded1 (DenseTied)         (None, 5242)              5242      
=================================================================
Total params: 1,380,602
Trainable params: 1,380,602
Non-trainable params: 0
_________________________________________________________________
None

Fitting autoencoder model...


Epoch 1/50
Learning rate: 0.001000
Shuffling data
Avg. training loss: 0.039892

Epoch 2/50
Learning rate: 0.001000
Shuffling data
Avg. training loss: 0.008136
…
