
Loading dataset cora...


Compiling autoencoder model...

__________________________________________________________________________________________________
Layer (type)                    Output Shape         Param #     Connected to                     
==================================================================================================
data (InputLayer)               (None, 4141)         0                                            
__________________________________________________________________________________________________
encoded1 (Dense)                (None, 256)          1060352     data[0][0]                       
__________________________________________________________________________________________________
encoded2 (Dense)                (None, 128)          32896       encoded1[0][0]                   
__________________________________________________________________________________________________
drop (Dropout)                  (None, 128)          0           encoded2[0][0]                   
__________________________________________________________________________________________________
decoded2 (DenseTied)            (None, 256)          256         drop[0][0]                       
__________________________________________________________________________________________________
input_1 (InputLayer)            (None, 1433)         0                                            
__________________________________________________________________________________________________
dense_1 (Dense)                 (None, 7)            10038       input_1[0][0]                    
__________________________________________________________________________________________________
dense_2 (Dense)                 (None, 7)            1799        decoded2[0][0]                   
__________________________________________________________________________________________________
decoded1 (DenseTied)            (None, 4141)         4141        decoded2[0][0]                   
__________________________________________________________________________________________________
prediction (Add)                (None, 7)            0           dense_1[0][0]                    
                                                                 dense_2[0][0]                    
==================================================================================================
Total params: 1,109,482
Trainable params: 1,109,482
Non-trainable params: 0
__________________________________________________________________________________________________
…
