
Loading dataset cora...


Preparing test split...


Compiling autoencoder model...

_________________________________________________________________
Layer (type)                 Output Shape              Param #   
=================================================================
data (InputLayer)            (None, 4141)              0         
_________________________________________________________________
drop1 (Dropout)              (None, 4141)              0         
_________________________________________________________________
encoded1 (Dense)             (None, 256)               1060352   
_________________________________________________________________
mvn1 (Lambda)                (None, 256)               0         
_________________________________________________________________
encoded2 (Dense)             (None, 128)               32896     
_________________________________________________________________
mvn2 (Lambda)                (None, 128)               0         
_________________________________________________________________
drop2 (Dropout)              (None, 128)               0         
_________________________________________________________________
decoded2 (DenseTied)         (None, 256)               256       
_________________________________________________________________
mvn3 (Lambda)                (None, 256)               0         
_________________________________________________________________
decoded1 (DenseTied)         (None, 4141)              4141      
=================================================================
Total params: 1,097,645
Trainable params: 1,097,645
Non-trainable params: 0
_________________________________________________________________
None

Fitting autoencoder model...


Epoch 1/50
Learning rate: 0.001000
Shuffling data
Avg. training loss: 0.17701799

Evaluating val set...
Val AUC: 0.617603
Val AP: 0.645230

Epoch 2/50
…
